model.pt (torch, 356683 bytes, 9 tensors)

weight f4 [200, 18]
00000000: 0089 00bf 2208 473e 7291 c9bc c07e 10be
00000010: 26b8 4d3e 20dc 15be a48e d53f e006 38bf
00000020: d0f9 8bbe 2651 703e 8d4d aabe 4bfe d6bd
00000030: 9ce5 223f 098d d03e 5597 113f a68c 273f
00000040: 99a0 66bf e507 d6be c9ad cbbd bf58 b23e
00000050: aa9e 25bf 55d1 7cbe 8b0f 213e b969 3d3f
00000060: 0f2b 0ebf 2ecc 74bf 2c93 fcbe b2c3 15bf
00000070: 0cd2 a03e bfa2 da3e 5818 03bf c14b d7bf
00000080: e064 0c3e 4f76 943e 0e00 893e 8ea4 86bf
00000090: 970b e6bc fa5c a9bc 7ee9 333f a3f4 413f
000000a0: bbd0 e33e 2778 8b3f e413 113f be5e 2f3e
000000b0: c0b7 6cbe 6543 35be 2d7d 13bf 9c11 67be
000000c0: 70ca 083d 0d9b 943e b611 10be 4cb7 2a3f
000000d0: 01b9 223e 4920 29bf fe96 adbc 5ccd e4bd
000000e0: e75d 44bf 5643 23bf 8d7d 983e aa32 29bf
000000f0: 5ca2 723f b400 e23e 7605 45bf ab0a 303f
00000100: ac26 82bf 1f45 913e 5964 cabe 4404 c23e
00000110: 5cee 6e3e 471d 1abe 2dd4 6a3f 3c9d fb3e
00000120: a2ba 2ebf 3371 afbe 4ba1 48be 0a64 39bf
00000130: c95b 26bf 8315 143f af55 4fbf 9a2c 86be
00000140: 82f2 0f3f 296e 81bf 2aa9 a5be 5126 1f3f
00000150: c9f5 4cbd a82b f4bd 7039 04bf e8fb 253d
00000160: 21de b33e 67a0 04bd ef1b 963c 3ab1 143f
00000170: 13f0 7bbe b06b 813e 92db e5be 1b8c 0c3f
00000180: 2167 9abf 5976 98be c080 5f3e fe8c bb3c
00000190: 128c 363f 27d3 543f d7bb 2a3e f3e9 7dbe
000001a0: 7595 6d3f ec34 9e3e 8b0f c93e c111 f63e
000001b0: 57b5 553d 98d2 0b3f e880 78bf 6e4d 67be
000001c0: 5a5b 67bf b247 20bf 2822 20bf d600 883e
000001d0: b591 7bbe 5471 e83e 32ca 093f 1e3b 243f
000001e0: b905 063e 71e9 9e3f 94f2 77bf 409f 843e
000001f0: 0784 c43d 72ba 6fbf 67cc 35bf f09b 2dbf
00000200: 509e f7be 6fb9 11bf a452 f9be d096 f1be
00000210: bbb9 473e dec7 c63e 9fdb 2f3f 5158 15be
00000220: ce09 1abe 2933 063f fe54 753f 554b b63f
00000230: 7dd6 0ebf 6cad b73e 7901 f6bd 792b 3a3e
00000240: 7292 31bf 48af 853e ae01 c6bc 3851 d93e
00000250: 3fdc 20bf ba9a b83f 2388 4fbe a4a9 7bbf
00000260: 66dc 56bd e8bf 00be 8720 f53e 01e2 b2be
00000270: bcfc dbbd 751f 7a3f 9ad8 60bd e980 7abc
00000280: 9a3e f83e 82d8 273d 9dac 9fbe c2d8 83be
00000290: 0132 2abd 8b93 103f 0159 8fbe ec59 d3be
000002a0: e207 183f 66b8 e4bc 3659 e33c d82d 583f
000002b0: 4c76 fd3e 27cd 39be 995c 0abf 5643 2bbf
000002c0: 21a6 963d e116 c4be 7dc3 8e3f cfb0 983e
000002d0: 7cd1 313f 62ec 0f3f 77d6 c53d ba20 3bbf
000002e0: 7489 ddbe 27f3 963f 0e42 96be 5426 d13e
000002f0: fe3d 99be e442 713e 05c4 e33b 6b77 683f
00000300: 5386 cd3e 10b6 4f3f 830d 203e 873d 99be
00000310: a6a3 3b3f fc0b 493f 5fd7 ccbd 999b 12bf
00000320: 78cf f43e 3eba 2d3f b898 36bf 96e7 4fbd
00000330: 2def 90bf bf41 4d3f f1fc eabe 106c f1bd
00000340: fb25 d1bd d4db 673e 9d38 563e d199 cebe
00000350: ba53 2fbe a4cf c4bf dcf6 e6be 83fe a7bb
00000360: 159f 623e 8a6e 213e ed88 373f 2270 ee3d
00000370: c620 7f3e 958a 73be 8f24 6abe 74b9 653e
00000380: 9d31 19be ea73 cc3e 06e9 e5bd adc4 cabe
00000390: 8145 973f 4717 923f c652 933e 7a2b 8c3d
000003a0: 4813 983d a0c7 803e e2c4 1cbf c59d 423d
000003b0: e8be 093f 64b5 423e 9dcd 213e f8fa 783e
000003c0: f422 0a3e 63bf d73e c786 5a3f dfa6 693f
000003d0: d919 5c3f e695 a43f 76f5 ee3d 9058 82bf
000003e0: 30b3 e43e 98d3 ac3b 4d6f f4bd 64b1 42bf
000003f0: e29b 30ba 595c ee3d 78bd df3d 2a4f c43d
-0.50209045 0.19436696 -0.024605487 -0.14110851 0.20089778 -0.14634752 1.6684155 -0.7188549
-0.2733903 0.23468456 -0.33262292 -0.10497721 0.63631606 0.407326 0.5687154 0.6544899
-0.900888 -0.41802898 -0.09945256 0.34833333 -0.6469523 -0.24689229 0.15728585 0.73989445
-0.5553445 -0.95624053 -0.49331033 -0.5850173 0.31410253 0.4270229 -0.5120902 -1.6819993
0.13710356 0.28996512 0.26757854 -1.0518968 -0.028081698 -0.020674217 0.70278156 0.7576391
0.44495186 1.0896043 0.56670976 0.17125985 -0.2311697 -0.1770149 -0.5761288 -0.22565311
0.033396184 0.29024544 -0.14069256 0.6668594 0.15890886 -0.6606489 -0.021190163 -0.11171982
-0.76705784 -0.6377462 0.29783288 -0.6609293 0.9477899 0.4414116 -0.7696146 0.6876628
-1.0168052 0.28373048 -0.39529684 0.3789388 0.23333114 -0.15050231 0.91730005 0.49143398
-0.6825353 -0.34266052 -0.19592778 -0.7241827 -0.64983803 0.57845324 -0.8099012 -0.26205903
0.5622941 -1.0111743 -0.32355624 0.6216784 -0.050039086 -0.11922389 -0.5165014 0.04052344
0.35130408 -0.032379534 0.018323867 0.58082926 -0.246033 0.25277472 -0.4489408 0.54901284
-1.2062722 -0.29777792 0.21826458 0.022894379 0.7130748 0.8313469 0.16673218 -0.24796276
0.9280618 0.3089975 0.3926967 0.4806042 0.052174892 0.54618216 -0.97071695 -0.22588131
-0.90373766 -0.626094 -0.6255212 0.26563138 -0.24567302 0.45398962 0.5382415 0.64152706
0.1308812 1.2414991 -0.9685452 0.25902748 0.09595495 -0.9364387 -0.7101502 -0.67816067
-0.4836297 -0.56923574 -0.48695862 -0.47185373 0.19504444 0.38824362 0.6869449 -0.14584471
-0.15042803 0.52421814 0.9583281 1.424174 -0.55796033 0.35874498 -0.12012 0.18180646
-0.6936408 0.2611029 -0.024170723 0.42444777 -0.6283607 1.4422219 -0.20266776 -0.98305726
-0.052456282 -0.12573206 0.4787638 -0.34938052 -0.10741565 0.9770425 -0.054894067 -0.015289524
0.4848526 0.040977962 -0.3118638 -0.2575131 -0.041551594 0.5647513 -0.27997592 -0.41279542
0.5938703 -0.02791996 0.0277525 0.8444495 0.49504316 -0.18144666 -0.5404754 -0.6689962
0.07355905 -0.38298705 1.1153408 0.29822394 0.6946027 0.56220067 0.096600465 -0.7309681
-0.4326893 1.1792954 -0.2934727 0.40849555 -0.2993011 0.23560673 0.0069508576 0.9080722
0.40141544 0.8113718 0.15630154 -0.29929754 0.7329658 0.7853391 -0.10002016 -0.57268673
0.47814536 0.6786231 -0.7132678 -0.050757967 -1.1322991 0.80178446 -0.45896104 -0.117881894
-0.10212322 0.22642452 0.20920034 -0.40351728 -0.17121783 -1.5375867 -0.45110214 -0.0051267757
0.22130997 0.15764824 0.7169331 0.116424814 0.24914846 -0.23783334 -0.22865508 0.22434026
-0.14960332 0.39932185 -0.11226086 -0.39603177 1.1818086 1.1413354 0.2877409 0.0684423
0.074255526 0.25152302 -0.6123792 0.047513742 0.53806925 0.19014508 0.15801091 0.24314487
0.13489896 0.42138204 0.85361904 0.9127025 0.8597694 1.2858245 0.11667912 -1.0183277
0.4466796 0.0052742474 -0.119352914 -0.76051927 -0.00067370955 0.11638708 0.1092481 0.09585412

bias f4 [200]
00000000: caf4 b93e f9c2 cbbe edc0 1a3e f53d a63f
00000010: 859a 5ebf 4125 b4bf 8a3f a0be d178 abbe
00000020: d6ae 49bf 3111 f4bf d0f0 7abf 9589 91be
00000030: a5db e4bf 65f1 1bbe db26 643e b4db e0bf
00000040: 42a3 07c0 dfbe 09bf 48b8 a7bf 7fb4 7fbf
00000050: 7251 e73f f95e 83be c840 91be 81bf 8cbf
00000060: d050 463f 358d 3ebe 2794 d4bf fb08 89bf
00000070: c820 92bf 5884 a5bf ca8e bebf 8f70 54bf
00000080: 9ccf 48be c0e5 fbbe f363 b9be 6b35 ebbf
00000090: 1d72 6abf 801a 9abf e044 49be b51f 31bf
000000a0: a34f f5be 7c32 dcbf 5521 cebf 7f8a f9be
000000b0: c407 98bf f024 d23d 09ca 91bf a336 b8bd
000000c0: f779 ebbe ab3c 223f aed8 0cbf 71df c5bf
000000d0: 31e5 b0bf 8e47 b13e 4ff2 cdbe 83d6 16bf
000000e0: e047 9abf 1e20 b4bf 6002 a13d 5e8f 0fc0
000000f0: aa06 47bf f143 2abf 0657 99be 62ed aabd
00000100: f040 10bf 8074 bfbf 5b42 523f 2d77 4fbe
00000110: 2c3e e4bd a1ea 15be 53da a2be be28 b7bf
00000120: c625 8fbf 2659 063f 5c1c 90bf dd5b e3bf
00000130: a5f5 8ebf 2223 673f addf cc3c 7471 25be
00000140: 2af9 ddbf 5a07 e43e bcb7 b03f 2873 73be
00000150: 7983 6abf 7ed6 4e3f 2575 97be f2a4 76bf
00000160: bab4 4d3f bff9 88bf 9fee ffbf a36f 95bf
00000170: eca8 b6be cb1d 02bf c9c0 313e eaab 6dbf
00000180: 90eb 18bf 74bd 5fbf 3ea8 41bf e3a9 abbf
00000190: 97cf 78bf e9f9 78be baa1 1fbe b2a6 063d
000001a0: eb80 623f 88af 37bf 9de8 adbf c469 d23f
000001b0: 4fd6 5a3e ed83 a03f 7f44 c5bf 37f4 91bb
000001c0: 5893 d1be c8c5 6fbf e0eb c9bf a799 ca3f
000001d0: 75fe 59bd 55b5 a73f 427a 9fbf fa1b 9cbf
000001e0: c370 f0be ac0c ea3e 09d8 88bf ae88 7abe
000001f0: 2c7a ac3e 05eb dfbd fa29 8cbe a4b9 953f
00000200: f946 36bd 6b65 c3bf 50f4 113e 12de 983f
00000210: b4fa 05c0 caca ddbf 48b6 dabe 06ea 8abf
00000220: c99c 023f cfdd 97be 94eb 843f fffd bc3f
00000230: bd52 9fbe 330a dc3d 30cf 03bf a11e 35bf
00000240: 2bcb f4be 3534 fdbe d979 99bf 980b eebe
00000250: 0ecd 72bf 0d90 8e3e 44ca 41bf 5213 18bf
00000260: ab45 1ebf c47d a0bd ef86 49bf 7db4 39bf
00000270: bc2e 69bf beff 0c3e bb9b 843d 5d6c 41bf
00000280: 619d 86bf 6911 d3be 3004 91bf 63ea 97bf
00000290: 0492 523e f853 813d e680 383f aa7e 1bc0
000002a0: 6eb5 273f f68f 253d 317d a23f 463d 223f
000002b0: 1a16 14bf 1b93 20bf 92ec a5bf 2c06 2cbf
000002c0: 6247 80bf b2ca a7be 4946 e8bf c649 bbbf
000002d0: a24d cdbe 78c6 98bf fcaf 663e 3794 dc3d
000002e0: 9e1b fdbe e228 babd 53b3 8fbd 3d31 2f3d
000002f0: 3184 2fbf 6511 c23e 5ce7 a7be 18d3 ddbe
00000300: 6b08 3bbe cbeb 3b3e 535b aebf cd08 b2be
00000310: 10ff 8abf 3ea9 69be 3627 36bf 3793 9ebf
0.36319572 -0.3979719 0.15112658 1.2987658 -0.8695453 -1.4073869 -0.31298476 -0.33490613
-0.78782403 -1.9067746 -0.980237 -0.2842528 -1.787953 -0.15228803 0.22280447 -1.7567048
-2.1193395 -0.5380687 -1.3103113 -0.9988479 1.807173 -0.25658396 -0.28369737 -1.0995942
0.7746706 -0.18608554 -1.6607713 -1.0705866 -1.1416254 -1.2931013 -1.4887326 -0.8298425
-0.19610447 -0.49198723 -0.36209068 -1.8375677 -0.91580373 -1.2039337 -0.1965518 -0.69189006
-0.4791232 -1.7202907 -1.6103922 -0.48738477 -1.187737 0.102609515 -1.1389781 -0.08994796
-0.4599149 0.6337382 -0.55018127 -1.5458814 -1.3819944 0.34624904 -0.4022393 -0.5892107
-1.2053185 -1.4072301 0.07861781 -2.2431254 -0.77744544 -0.6650992 -0.29949206 -0.083460584
-0.56349087 -1.4957428 0.821325 -0.20260306 -0.11144671 -0.14640285 -0.31807193 -1.4309309
-1.1183403 0.5247978 -1.1258655 -1.776241 -1.1168715 0.90287983 0.025009 -0.1615656
-1.7341664 0.4453686 1.3806071 -0.23774397 -0.9160686 0.8079604 -0.29581562 -0.96345437
0.8035389 -1.0701216 -1.9994696 -1.1674694 -0.35675752 -0.5082671 0.17358698 -0.92840445
-0.5973444 -0.8739846 -0.7564734 -1.341122 -0.97191757 -0.24314083 -0.15589038 0.032873817
0.88477963 -0.71752214 -1.3586613 1.6438527 0.21370815 1.254026 -1.5411528 -0.0044541615
-0.40932727 -0.93661165 -1.5775108 1.5828141 -0.053221185 1.3102213 -1.2459185 -1.2196038
-0.4696103 0.45712793 -1.0690929 -0.24466202 0.3368696 -0.10933498 -0.27375776 1.1697278
-0.04450128 -1.5265325 0.14253354 1.194277 -2.0934267 -1.7327511 -0.42717195 -1.0852668
0.51020485 -0.29661414 1.0384393 1.4765013 -0.31117812 0.10744133 -0.5148802 -0.7074986
-0.47811255 -0.49453893 -1.199031 -0.4649322 -0.9484414 0.27844277 -0.7569926 -0.5940448
-0.61825055 -0.07836488 -0.7872152 -0.7254103 -0.91086936 0.13769433 0.06475016 -0.75555974
-1.0516778 -0.4122422 -1.1329403 -1.1868404 0.20563513 0.06314844 0.72071683 -2.429606
0.65511215 0.040420495 1.2694455 0.63374746 -0.57846224 -0.62724465 -1.296282 -0.6719692
-1.0021784 -0.32771832 -1.8146449 -1.4631889 -0.40098292 -1.1935568 0.2252807 0.10770457
-0.49435133 -0.09089829 -0.07016625 0.042771567 -0.68561083 0.37903896 -0.327937 -0.43325114
-0.1826493 0.18351667 -1.362162 -0.3477234 -1.0859089 -0.22818467 -0.7115358 -1.2388676

weight f4 [200, 200]
00000000: 9991 1b3f a6fa 443e 85df bb3e 427b 153f
00000010: 39e1 073f 1e47 943d c7ac c9bd 0564 053e
00000020: 61f3 1b3f 08ac 3abe fe9a 3f3d c04e a53e
00000030: ea7a 20bf af83 43be 4fbc d73e 0707 60bf
00000040: aa7b 9fbf 5566 57be a95e cc3e b6bd d4be
00000050: 17cd 423f a7af d9be 3c8d 60bf de85 783f
00000060: be6f 413d af2f 15bf 092f 0a3e 9191 f83d
00000070: a445 a23e 1825 9abe 512b 053e dc99 4bbd
00000080: 3783 d6be 97f5 493e ea7b bebe ee57 bfbe
00000090: a58a b5be b956 283f f242 99be 8cca ea3c
000000a0: 00ac a93e 7848 d73c 2524 0dbe d735 d13e
000000b0: 5479 f4bd 39a0 e23e a883 c53e 4302 c93d
000000c0: 9c01 e6bd 7621 a0be da0e 9d3e 51d4 f33c
000000d0: 27db 18be 3663 8a3f 6d66 523d 6694 3e3e
000000e0: 544b 90be b4fe 92be 995b 123f 994f c5bf
000000f0: 4a46 d33d ad75 5abe a030 983e 6ca7 ea3e
00000100: fb17 03bf 0787 8a3f 2690 ce3e 50fa 413e
00000110: 3c45 1f3f 8e90 a53f fd38 79be 49bb 26be
00000120: 9010 1e3e 8d73 943e a4f4 5e3f e84c 49bf
00000130: d574 db3c 78b0 ba3f 4a75 483e 3ff3 9bbe
00000140: 422f 06bf 94e1 e23d 0d30 b63d 7137 093d
00000150: 03f4 9cbe 44b7 f8be 44e7 1b3e 4bce 2abf
00000160: a490 4b3e 134b 833e 1df1 2fbf fc8f 32bf
00000170: c0f7 90be 50b8 f2be 2590 42bf 8684 f73e
00000180: c612 623d 4fef 5a3e 3950 e23e 4e0d 873f
00000190: 4fdf 0cbe c9e0 4ebf 2004 933e b94d 513c
000001a0: 7326 6c3e f82f 383e 2e3a 163f f929 cdbd
000001b0: ea2f cabe c142 543e b401 3dbf 2672 973f
000001c0: 9879 16bf c509 57be f49a a9be b84c 883e
000001d0: b38c 7f3e accf cd3e a458 87be f079 56be
000001e0: 03a1 e4be 9968 cf3c 503b 063f 2d67 553f
000001f0: 4766 8e3e f99d 0dbf baff 6fbe d927 a93d
00000200: 948b 113f d7c1 c3be cb71 6e3e 0d5b c7be
00000210: c18e a9be 5c06 b13f a246 4e3e 0285 123f
00000220: d38e 37bf 4584 28bc e0dd 1b3e 5317 e83e
00000230: 2deb 71be 9b51 13be b9b3 b73e 9260 ddbe
00000240: fa29 aebe 5acd 0f3d af20 a63f 9c3c 653e
00000250: fa9b 413e 57ae 283f 258d 32be e810 053e
00000260: 5f78 d73e a3d3 9e3d 4173 6dbe 7f1e e43f
00000270: a6e1 183f d8c7 b43e 79b7 52be 2e19 163f
00000280: 667c 033c 1ed7 3abe a16c 6cbf 6c25 a93b
00000290: 8923 46be ee19 a3be ba72 243e 3739 513f
000002a0: 3cf2 c1be 8447 21bc ca78 13bd 593d 28bd
000002b0: 3e25 6d3e 6767 f5bd f011 57be 7170 77be
000002c0: 64b7 b8bd bde5 cabe 635d 4abe 6df0 8fbf
000002d0: b338 79be 3e86 ac3e c649 e23e dcba 34be
000002e0: 463b 733d d02b a9be 7702 8d3e 82fd 033e
000002f0: 0f36 28be d00e 303d c82b 3f3f eb91 1f3e
00000300: d13e 91bd da9a 973e 4ec7 37bf 573e 84be
00000310: 4c19 fd3e ae11 a1be 5d43 843d a7b5 3b3c
00000320: 6186 593d 8aaf b7bc eb5c de3d 69bc 593e
00000330: fa25 8e3d 34e7 9ebe 9eca 28be 3960 a1bd
00000340: 68c2 f73d 31b4 d13c 0a66 f7bd 66c1 34be
00000350: 88f1 a83c 9a17 33be f3e5 b73d debe d7bc
00000360: eddc f1bd 0cbd 34be a3ff 153e 2a74 03bd
00000370: b119 433d d547 363d 5cef 3abe d22c a03e
00000380: ae76 8fbd 9f75 2e3d b107 efbd 05c7 8f3b
00000390: b4fa ccbd 7e21 203d 17c7 003e ec24 76be
000003a0: bd08 103d e3a8 a33c ac06 863e 5f14 60bd
000003b0: 6f81 b13d 314c 4b3e 6418 5d3d 6609 3cbe
000003c0: 0d2c 18be de5a 083c 29a3 773d ce07 b6be
000003d0: 9b8b 16bd 5a15 48bd a998 683e b66e ce3c
000003e0: 8678 083e f3f6 19be f396 173d 9bb7 fc3d
000003f0: 4723 a2bd abeb 913e c5c1 15be 3951 f23c
0.6076904 0.1923624 0.3669397 0.583912 0.5307804 0.07240127 -0.09847408 0.13026436
0.6091824 -0.18229687 0.04677867 0.32286644 -0.6268755 -0.19093202 0.42135856 -0.8751072
-1.2459614 -0.2103513 0.3991597 -0.41550988 0.7609419 -0.42516825 -0.87715507 0.97079265
0.047225706 -0.58275884 0.13494505 0.121371396 0.31693757 -0.30106425 0.13004805 -0.04970728
-0.41896984 0.19722591 -0.37203914 -0.37371773 -0.3545734 0.6575733 -0.29933888 0.028661035
0.33139038 0.026279673 -0.1378332 0.4086139 -0.11937204 0.44262865 0.38577008 0.098148845
-0.11230776 -0.3127553 0.30675393 0.029764326 -0.1492735 1.0811527 0.051367212 0.18611297
-0.2818247 -0.28709948 0.57171017 -1.5414916 0.10316141 -0.21333952 0.29724598 0.45830858
-0.51208466 1.0822457 0.40344352 0.18943143 0.6221502 1.293474 -0.24338146 -0.16282381
0.15436006 0.28994408 0.8709204 -0.78632975 0.026789108 1.4585104 0.19575992 -0.3045902
-0.5241586 0.11078182 0.08895884 0.03350014 -0.30654916 -0.4857732 0.1522494 -0.6672103
0.19879395 0.25643215 -0.68727285 -0.6975095 -0.28314018 -0.47406244 -0.760012 0.48343295
0.055193685 0.21380351 0.4420183 1.0550935 -0.1375706 -0.80811745 0.28714085 0.012774878
0.23061542 0.17987049 0.58682525 -0.10017771 -0.3948968 0.2072859 -0.73830724 1.183171
-0.5877929 -0.2099982 -0.33126032 0.26621032 0.24956016 0.40197504 -0.26434815 -0.20944953
-0.44654092 0.02531843 0.52434254 0.8336056 0.27812406 -0.5531917 -0.23437396 0.082595535
0.56853604 -0.38233826 0.23285596 -0.38936654 -0.33116725 1.3830066 0.20144132 0.57234204
-0.7170231 -0.010285442 0.15221357 0.45330295 -0.23624869 -0.14386599 0.35879305 -0.4323774
-0.340164 0.035107948 1.2978724 0.22386402 0.18907157 0.6589102 -0.17436655 0.1299473
0.42084023 0.0775521 -0.23188497 1.7821807 0.5971931 0.3530872 -0.20577802 0.5863217
0.008025264 -0.18246123 -0.92353255 0.0051619317 -0.19349493 -0.3185572 0.1605939 0.8172793
-0.37880123 -0.009843711 -0.036003865 -0.04107413 0.23158738 -0.11982613 -0.21002936 -0.24163987
-0.09019354 -0.396284 -0.19762187 -1.1245247 -0.24338035 0.3369617 0.4419691 -0.17649406
0.0593827 -0.3304124 0.27540943 0.12889674 -0.16426872 0.042982876 0.7467618 0.15583007
-0.070920594 0.2961033 -0.7178849 -0.25828812 0.49433362 -0.314588 0.06458161 0.0114568835
0.05310667 -0.02242257 0.108575664 0.21263279 0.06940837 -0.3103577 -0.16483542 -0.07879681
0.12097627 0.025598617 -0.12080009 -0.176519 0.020622984 -0.17489472 0.08979406 -0.02633613
-0.118097164 -0.1765024 0.14648299 -0.032093205 0.047631923 0.044502098 -0.18255371 0.31284195
-0.07005058 0.04259264 -0.11671389 0.0043877386 -0.10008755 0.03909444 0.12575947 -0.24037522
0.035164583 0.019977992 0.26176965 -0.054706927 0.086672656 0.19853283 0.05397834 -0.1836296
-0.14860554 0.008322446 0.060458336 -0.3555283 -0.036754232 -0.048848487 0.22714485 0.025199275
0.13327226 -0.1503561 0.03700919 0.123397075 -0.07916885 0.28500113 -0.14624698 0.029579746

bias f4 [200]
00000000: 6625 3f3e c860 cebc bc35 cbbd ef16 04bd
00000010: f803 46bd f498 eabc 45e9 59bd 08d5 f9bd
00000020: ac2c 8fbd 1122 d03d 6447 d6bc 2ccd a3bd
00000030: 7404 abbd 81a3 96bd e13b ce3d 8dd6 66bd
00000040: 130c 003d 57e2 fdbd 9806 85bd 87d9 8fbc
00000050: 6279 893d 1943 25bc 7b44 5f3d bbf8 f9bc
00000060: b853 093e b168 2f3c b82f c93b 9fec adbd
00000070: 9843 99bc aa68 fc3c b219 3ebd 3bc0 e93c
00000080: b575 d43c 8491 7dbd 172c acbd 3012 3bbd
00000090: 3b2b 66bd 50b3 8cbd 7e04 29bc d738 9dbd
000000a0: 7fb2 253c d000 cebd 100f 513d 4118 46bc
000000b0: 9028 a3bd 09e6 f03d 469e 19bd d009 a13b
000000c0: b65d 023e 30eb 8cbd 37a0 c53d 3088 583d
000000d0: 3689 69bd 16df 7e3c b7e7 ca3a 15fa babd
000000e0: df45 eebd 5584 bfbd 2988 bfbd 362c 11bc
000000f0: fe8d b4bc c5bc edbd b5b2 e43a 2ae8 13bd
00000100: 45a9 493d 6645 f83d 864c f0bd 99d3 abbd
00000110: 2c0d ccbd cf85 86bd 83ce c93d caed 26bd
00000120: 265e acbd da08 163d 3da2 26bd e4a2 2e3d
00000130: 7462 153a 2738 533d 256e c5bc edc2 c1bd
00000140: 4db3 e8bd bc11 8fbc 0147 2b3d cda1 cfbc
00000150: 42e7 88bd 2bcd 333e 6230 8fbd 0deb c5ba
00000160: 22ff e8bd 1077 a5bd 23dd a23b b358 d7bd
00000170: 4abd bfbd 08f9 0a3d 5742 89bc 7cb9 88bd
00000180: 5b7d 31bd c9f3 2cbd 2415 cbbc 3bfe bdbd
00000190: 045f 88bd 019f d6bc 04db 81bd 3a96 e4bc
000001a0: 0f9d edbd 79c3 a93d 91d4 00bd 8763 44bd
000001b0: e580 e13d 8c00 5bbb 656c 4fbd 899f 9f3d
000001c0: 075f 50bd cba0 bcbd 18ba 92bd c9fb a03b
000001d0: 68b1 7e3d e086 adbc e9f1 96bd a563 e6bd
000001e0: 0412 133a 12b1 93bd a49c 8ebc 6042 88bb
000001f0: af78 86bd 8877 af3b 7609 85bd 6b84 a4bd
00000200: b2bd 27bd 44b3 bcbd caed 41bd fefc acbd
00000210: 8ddb 03bd 6481 dcbc 14b8 aebb 4bb2 94bd
00000220: f023 ddbd 0956 e1bd bc3d e4bc f791 0cbc
00000230: 69de 173e 0588 47bd ae95 d4bd 64bb bebd
00000240: 4842 11bd 5b1f 9e39 982c da3d ab97 3bbc
00000250: 5381 9abb 6f38 923d 7630 4ebc 1249 babd
00000260: 1cca 6cbd 2a91 afbd f053 a8bd af02 493d
00000270: be4b 5d3d f377 86bd bed6 9bbd 2d42 26bd
00000280: 22c2 77bd e07a babc b442 4ebd 4af9 8fbd
00000290: 565d ab3d 9015 36bd 216d eabd 65f1 7dbc
000002a0: 0ec4 89bd a9b5 263b f10b 51bd 82f9 163d
000002b0: eccd dfbd abeb 2bbd d178 57bc 5445 eebd
000002c0: d96e 3cbc c652 09bd df5c 23bd accd 2ebd
000002d0: ba72 92bd 159c 2c3d cd3c d8bd 270a c2bd
000002e0: d077 65bd 2867 77bd 4434 06bd 4a4d b9bd
000002f0: 07eb c9bd b1e2 cdbd e658 a5bd ba9f fcba
00000300: d3e0 733d 8ec8 85bd 2ae0 1c3e b9ad 33bd
00000310: 96d9 47bd 117f 863c 885b 06be 7551 533c
0.1866661 -0.025192633 -0.099223584 -0.032248434 -0.04834363 -0.028637387 -0.05320098 -0.121988356
-0.06990942 0.10162748 -0.026157089 -0.07998118 -0.08350459 -0.07355405 0.10070015 -0.056356955
0.031261515 -0.123966865 -0.06495398 -0.01755978 0.06712605 -0.010086798 0.054508667 -0.030514112
0.13410842 0.010706113 0.0061397217 -0.084923975 -0.018708989 0.030811626 -0.046411224 0.028534045
0.025935033 -0.061906353 -0.08406847 -0.04567164 -0.05619357 -0.06870139 -0.010316012 -0.07676857
0.010113358 -0.10058749 0.051039755 -0.0120907435 -0.07966721 0.11762626 -0.037504457 0.0049145
0.1273106 -0.06880796 0.09649699 0.052864254 -0.05701562 0.0155561175 0.0015480433 -0.091297306
-0.116344206 -0.09351412 -0.09352142 -0.008860638 -0.022040363 -0.116082706 0.0017448278 -0.03611008
0.049233694 0.12122612 -0.11733346 -0.083899684 -0.0996345 -0.06568491 0.09853842 -0.040754117
-0.08416395 0.036629535 -0.040682066 0.042635813 0.00056985696 0.051567223 -0.024100373 -0.09461007
-0.11362324 -0.017464511 0.04181576 -0.025345707 -0.06684734 0.17558734 -0.0699165 -0.0015099958
-0.11376788 -0.0807935 0.004970209 -0.10514965 -0.09362276 0.0339289 -0.016755266 -0.06676003
-0.04333244 -0.04222468 -0.024790354 -0.09277006 -0.06658748 -0.026198866 -0.06340602 -0.027903665
-0.11602222 0.082892366 -0.03145272 -0.04794648 0.11010913 -0.0033417074 -0.050640482 0.07794101
-0.050871875 -0.09210356 -0.07164401 0.0049128276 0.062180907 -0.021182477 -0.073703595 -0.112494744
0.00056102895 -0.07211508 -0.017408676 -0.004158303 -0.06565987 0.0053548254 -0.06495945 -0.08033069
-0.040952392 -0.0921388 -0.047345914 -0.08446692 -0.0321918 -0.026917167 -0.0053320024 -0.07260569
-0.1079787 -0.11002738 -0.027861468 -0.008579723 0.14830936 -0.048713703 -0.10380112 -0.09313086
-0.0354636 0.0003015947 0.10653037 -0.011449735 -0.0047151237 0.0713967 -0.012584796 -0.09095968
-0.057809934 -0.0857261 -0.08219135 0.049074825 0.05402731 -0.06565847 -0.07609318 -0.040590454
-0.060487874 -0.02276367 -0.05035658 -0.0702997 0.08367412 -0.044454157 -0.11446596 -0.0154994475
-0.067268476 0.0025437868 -0.05103678 0.036859043 -0.10927948 -0.041972797 -0.0131513635 -0.11634317
-0.0115010375 -0.033526205 -0.03988349 -0.042676613 -0.071507886 0.04214104 -0.10558472 -0.09474593
-0.056022465 -0.06040111 -0.032764688 -0.09047945 -0.09859281 -0.100530036 -0.08073597 -0.0019273676
0.05954058 -0.065323934 0.15319887 -0.043866847 -0.04879149 0.016418012 -0.13120854 0.012897839

weight f4 [200, 200]
00000000: dab5 81bc 51f6 663e cf60 bfbc a391 75be
00000010: 162c c1bb fff3 1f3e 65c4 bcbd e0f1 39bd
00000020: 91ea f03e fcbf abbc 2d32 5c3e f27c 2fbe
00000030: 6431 d7bc 855e 193e 2dcb a8bd 1a73 a93d
00000040: 824f b5be 8932 023e ce9c 5dbe e1ba 423e
00000050: 9521 803d 4a18 113d 3789 f3be c442 15bf
00000060: be1c bd3d ca6d 59be e2d8 3bbe d831 0bbe
00000070: 3952 973d 7661 10bf 5f7f 14bf 1453 153e
00000080: ca0a 963d 79fc 483e 70a3 07be 8d48 5b3e
00000090: 3122 a53e af17 f73e 4104 b7be 4731 053d
000000a0: 0e00 e5bd b56f 16be d66f 57be 36af 173d
000000b0: 54f2 53bd e748 c8be c229 833e 18c5 cabe
000000c0: d6bb 4f3c f39d bb3e ae56 f5bd fbdf 05bf
000000d0: 7c6b 2d3f 9c11 76be a09e 7fbe 1c05 0dbe
000000e0: d673 29bd 2b6f 36bd 4eb6 fbbd f268 413e
000000f0: 89b3 0bbf 31c6 643e 297d acbd 3c02 083f
00000100: 1a05 8dbe 2f66 293d 8c47 103f 4492 073e
00000110: ec28 823e 7955 16be 0bfe 12be c975 593e
00000120: 76af b5bd 3f1c a53d bd55 df3e bdc1 d3be
00000130: 8cc6 29be 3249 6ebd 4ac6 87be 2c9c 35bc
00000140: 2ce6 89bd 6e8d 803e 7b5a 0bbf 7168 28be
00000150: b6ae 82bd 60d6 903e e622 783d 54ec 8bbe
00000160: 04fb d43d 7c1a 82bd ca8b 20bf c33f db3d
00000170: 153f 603d 8ddc 8c3d 958e b43d 0973 833e
00000180: 1961 08be cb82 29bd f7df 633d d1fb c63b
00000190: d5d0 a8b9 8391 193e 1a97 25be b6a4 a2bf
000001a0: 0866 a0bd 2523 51bf b158 3bbf 76ba 3d3e
000001b0: 1e99 d43b 3287 0dbd da17 533f 5c8d 94bd
000001c0: 0f7d 60bd ef8f 01be 39d9 1abd 8c01 463e
000001d0: 6052 a8bb 9584 21be 20ec 22bf 1165 16be
000001e0: 73b5 6fbe e7b9 e9bd 5d1c 6ebe fbd1 34bd
000001f0: 9f28 aabe 5486 a5be d3e2 e2be 428c a93c
00000200: 33f8 8fbe f2ad d2be 0f45 6dbe 8853 353e
00000210: c94a e63e c6c2 b6be 2f89 9abe 24cd 4ebd
00000220: 1ecf d43d c093 5dbe e811 80be 7b70 9aba
00000230: dfbd 2dbe 6c90 8fbe c91f 843d 1efd ddbd
00000240: f6df b1bd a736 92bf 827a 99bc ca30 85be
00000250: 81f8 f6bd 60c9 06be 88cc b0be 99d6 25bd
00000260: fc16 5dbd ddf2 a73d 6c2f 853d e1df 50be
00000270: ebf5 0dbd 92bc 12bf 8791 1abe d699 cc3e
00000280: efd4 11bb 3a12 c3bd fcd6 d63e cb51 0f3f
00000290: fa8b c4bd fd0f 88be 395a 84bc d520 f5be
000002a0: 3874 97be 207f 02be d968 bfbd 5468 b2be
000002b0: dffe 28bd a5bd 09be c9a7 42bd c5e5 8cbd
000002c0: 2c2e 8cbf 167c 073a 6bea e9bd 9edf 373c
000002d0: 551d 49be 469b 16be b92f 533f 8a22 153d
000002e0: b05e b1be 8328 b3bd 2b89 a8bd a9fc f7bd
000002f0: 9434 18be 4411 373d 877f c5be 0506 c93c
00000300: c506 433d 84bf 8abd d1d3 04be 59b4 29bf
00000310: c066 893e bcee 67bd b043 423f 9ec0 b23e
00000320: bf62 b03c 436f f5ba cd39 2cbd f3d0 8c3d
00000330: 4b04 4a3d 1eff 07be c44d fa3c 6c29 bebc
00000340: 710e 3bbe d71c 843c d96b 1fbe a388 2c3d
00000350: f99d acbc ea6d 68be 9554 25be 7925 2dbd
00000360: 5011 0d3e 408f 00bb ccf0 d3bb 96af d03d
00000370: cf45 90bd 1ae0 14be 400b e93d 7e73 ffbb
00000380: 36f0 96be 07da d93c 3249 88be 58af a8bd
00000390: 4ff9 d63d 55c6 d23d ed0a 923d db0c 49bd
000003a0: 9afa 123f 4d7c 083e 401a 303e feda 4abe
000003b0: a46d 00be 3b70 9ebe e6c5 adbd 0817 873e
000003c0: 5848 d3bd b596 20bd 5e96 6abd 2987 8fbe
000003d0: 4edf c63d 9d09 bfbd d0d8 c53d 7552 acbc
000003e0: e63e 2bbe b08b 2cbe df61 56be 4964 aabd
000003f0: 1cf9 10bd 1cf2 10be bc01 62bd fde8 f73d
-0.015833784 0.225549 -0.023361592 -0.23981337 -0.005895148 0.15620421 -0.09217147 -0.045396686
0.4705396 -0.020965569 0.21503516 -0.17137507 -0.026268668 0.14977463 -0.08241878 0.08273907
-0.35412222 0.1271459 -0.21641847 0.19016601 0.06256405 0.035423554 -0.47565624 -0.58305
0.09233998 -0.21233287 -0.18344453 -0.13593233 0.073887296 -0.56398714 -0.5800685 0.14582473
0.073262766 0.1962756 -0.1324594 0.21414395 0.32252648 0.48260257 -0.35745433 0.032517698
-0.11181651 -0.1469105 -0.21038756 0.03703233 -0.051744774 -0.3911812 0.25617796 -0.39603496
0.012679061 0.36643943 -0.119794235 -0.5229489 0.67742133 -0.24030155 -0.24962854 -0.1377148
-0.041370235 -0.04453961 -0.12290631 0.1888769 -0.54570824 0.22341229 -0.0842231 0.5312841
-0.27542955 0.041357215 0.5635917 0.1323939 0.25421846 -0.14681043 -0.14354722 0.21236338
-0.08871357 0.08062028 0.436201 -0.41358748 -0.16579646 -0.058175273 -0.2651847 -0.011084598
-0.06733355 0.25107902 -0.5443494 -0.16446091 -0.0638098 0.28288555 0.060580157 -0.27328742
0.1039944 -0.06352708 -0.627133 0.10705521 0.05474766 0.06878004 0.08816258 0.25673702
-0.1331829 -0.0413845 0.05563351 0.0060724993 -0.0003219905 0.14996915 -0.16170922 -1.2706516
-0.07831961 -0.8169425 -0.7318221 0.1852816 0.0064879796 -0.03455276 0.8245827 -0.07253525
-0.054806765 -0.12652563 -0.037804816 0.19336528 -0.005136773 -0.15773232 -0.6364155 -0.14686991
-0.23409061 -0.11412411 -0.23253007 -0.044145565 -0.33234116 -0.32329047 -0.44313678 0.020696763
-0.28119048 -0.41148335 -0.23170875 0.17707646 0.44978932 -0.35695475 -0.30182788 -0.050488606
0.10391067 -0.21638393 -0.2501366 -0.0011782789 -0.16966961 -0.28039873 0.06451375 -0.10839294
-0.08685295 -1.1422929 -0.018735174 -0.26013786 -0.12059117 -0.13162756 -0.34531045 -0.04048786
-0.053976998 0.08200619 0.06503186 -0.20397903 -0.034658354 -0.57318985 -0.15094577 0.39961118
-0.0022252162 -0.09524961 0.41960895 0.5598418 -0.09597011 -0.26574698 -0.016156303 -0.4787661
-0.29580855 -0.12743807 -0.0934617 -0.3484522 -0.04125869 -0.1345125 -0.047523294 -0.068797626
-1.095159 0.00051683316 -0.11421665 0.011222748 -0.19640096 -0.1470767 0.82494694 0.036409892
-0.34642553 -0.08747961 -0.08229288 -0.12108738 -0.14863807 0.0446942 -0.38573858 0.024539003
0.047613878 -0.0677481 -0.12971427 -0.66290814 0.26836205 -0.05662416 0.7588453 0.3491258
0.02153146 -0.0018725175 -0.04204731 0.068757914 0.0493205 -0.13280913 0.03055466 -0.02321311
-0.18267228 0.016127033 -0.15568484 0.042122494 -0.021071421 -0.22698179 -0.16145547 -0.042272065
0.13776135 -0.0019616634 -0.006467914 0.1018974 -0.07044565 -0.14538613 0.11379099 -0.00779575
-0.2948014 0.026593221 -0.26618344 -0.08236569 0.104967706 0.10291735 0.0713099 -0.049084526
0.5741364 0.13328667 0.17197514 -0.19810101 -0.12541825 -0.30945 -0.08485012 0.2638476
-0.10316533 -0.039206225 -0.057272308 -0.28032807 0.09710561 -0.093280055 0.09660494 -0.021035412
-0.16723213 -0.16850162 -0.20935772 -0.08319909 -0.03539382 -0.14154857 -0.055177435 0.12104986

bias f4 [200]
00000000: 0b3a 8abd 75a8 d9bd e2bc 97bd 488c 9dbd
00000010: cb0c a1bd 296c 14be 961e babd eaa8 89bd
00000020: 0ff9 e9bd 432c cabd 522f ecbd 27ec dabd
00000030: 17d0 75bd 1d87 f9bd 3a1d abbd 4947 b5bd
00000040: 2128 95bd c8aa c6bd c3bb dfbd 8390 94bd
00000050: 6249 8fbd a721 d0bd d007 8ebd 1a71 96bd
00000060: e913 c6bd 160a 71bd 1211 a5bd abb6 b1bd
00000070: 3748 98bd 9d57 acbd b995 09be 6dd3 e5bd
00000080: 4932 a6bd 212f 53bd 7715 b3bd c6a2 56bd
00000090: 9022 c7bc b2d4 2ebd 842f 9dbd ce79 b8bd
000000a0: 10da 07be 8ee2 6fbd ebbd cebd f0ed 83bd
000000b0: 188d b5bd d253 a0bd 80c6 20bd 0f73 efbd
000000c0: fabb 88bd 032e b6bd 7652 c9bd e9cb 9cbd
000000d0: b6e9 04be 27ef 5ebd 6fa3 a6bd 4644 edbd
000000e0: c30d 7fbd 691f c6bd 2aec fbbd 701f adbd
000000f0: 0044 63bd f28c 02be 737e 0dbe f39a 31bd
00000100: ae14 35bc fade d4bd f845 dcbd c048 0fbe
00000110: e41d bdbc b770 9abd 2396 5fbd 715c debd
00000120: 7b5a bcbd 30e6 51bd b592 cbbd 02aa 83bd
00000130: b6bb b9bd 58f1 f6bd c11a 8dbd b627 b5bd
00000140: e21c cbbd 30ba a6bd 0343 9abd 4a41 d0bd
00000150: 2fd2 20be 8269 c3bd 2c4b ebbd f00c d8bd
00000160: c71b 97bd 0495 8bbd e174 05be f1c2 43bd
00000170: 0d00 dfbd ae9b bcbd 7850 a7bd 2e64 96bd
00000180: d2fc d1bd b906 61bd 2a76 4ebd e696 03be
00000190: 91a6 cebd 9579 04be 4f27 8fbd 2a77 85bd
000001a0: 9bda 01be 17c2 79bd f261 01be fab1 75bd
000001b0: abbc eabc c9ab bbbd ce65 e1bd f9e1 aabd
000001c0: e80e 44bd cbfa 12bc f30d c5bd 6f5f 94bd
000001d0: 7a37 10be 9dcd babd 3ad6 03be dc68 32be
000001e0: eaad 74bd fcfc e7bc a3a1 4cbd 3d79 9dbd
000001f0: b06f a5bd b3cd f8bd 27ae 8fbd c7ef d0bd
00000200: 0712 6fbd ec6b 73bd 8795 01be 59fc a0bd
00000210: d22d 95bd 1563 82bd 1b5e bebd 3f5e 9cbd
00000220: 4a54 c7bd 868e d8bd 8fb3 8fbd dd22 4cbd
00000230: a4db 78bd c6c7 b7bd fcea debd f9b7 d0bd
00000240: 9cc9 a1bd 3fea b7bd 0a0e efbd 8183 ebbd
00000250: 9a00 acbd 4d7c 0dbe 6d42 a5bd f3ad 30bd
00000260: eb94 70bd 63ff d7bd 524f e1bd 384a 88bd
00000270: 2a7f 82bd 9a21 f8bd 0b9c bdbd 3af2 3dbd
00000280: d711 b6bd c958 e2bd 99cd aabd 29de 13be
00000290: 0ecb debd 8e0d abbd d011 62bd 8a0d 58bc
000002a0: 20d1 b8bd 3bbd 5fbd cced a0bd 5349 c0bd
000002b0: 09e3 bcbd 4e4f 8bbd d3be 24be 9b36 62bd
000002c0: ad1f 5fbd a7d3 49bd ea13 9ebd 2c1f f9bd
000002d0: 5271 9bbd 27fd bebd bda1 e5bd e53e 10be
000002e0: 9ac1 c2bd e213 73bd 0cfc ccbd 7f9a bcbd
000002f0: 7d9a b4bd 8fef acbd 4d28 9fbd 0025 81bd
00000300: 44ad 71bd 93c9 d4bd 0a67 84bd f064 bcbd
00000310: f0a2 d4bd 0bf4 cfbd 3216 cbbd 7aee f0bd
-0.06749352 -0.10627834 -0.074090734 -0.07692772 -0.07863768 -0.14494385 -0.09087865 -0.06721671
-0.11424457 -0.098717235 -0.11532463 -0.10689574 -0.060012903 -0.12183974 -0.08355184 -0.08851487
-0.072830446 -0.09700543 -0.109244846 -0.07254126 -0.069964185 -0.10162669 -0.06935084 -0.07345791
-0.09671766 -0.05884751 -0.080598965 -0.08677419 -0.07435649 -0.084151484 -0.13436021 -0.11221967
-0.0811506 -0.051558618 -0.087443285 -0.052401327 -0.024308473 -0.04268331 -0.076750785 -0.090076074
-0.13266778 -0.05856567 -0.10094818 -0.06441867 -0.08864802 -0.078284875 -0.039251804 -0.116918676
-0.06676479 -0.08895495 -0.09830181 -0.0765608 -0.12979779 -0.054427292 -0.08136641 -0.11585288
-0.062268984 -0.0967396 -0.12300904 -0.08453262 -0.05548477 -0.12749079 -0.13817768 -0.04336066
-0.011052294 -0.10394092 -0.10755533 -0.13992596 -0.023085542 -0.0754103 -0.05458654 -0.108574755
-0.09196945 -0.051244915 -0.099400915 -0.06428911 -0.09069006 -0.120577514 -0.068898685 -0.08845465
-0.09917618 -0.08140981 -0.07532313 -0.10168703 -0.15705179 -0.095416084 -0.11488947 -0.10549343
-0.07378345 -0.06815532 -0.13032867 -0.047793332 -0.108886816 -0.09209381 -0.08169645 -0.073433265
-0.102533 -0.05493805 -0.05040566 -0.12850532 -0.10090364 -0.12937005 -0.069899194 -0.06516869
-0.12681048 -0.060976114 -0.1263502 -0.059984185 -0.028654417 -0.09163625 -0.11005746 -0.08343882
-0.04786578 -0.0089709265 -0.09621801 -0.07244765 -0.14083663 -0.09121249 -0.1287469 -0.17422813
-0.05973617 -0.028318875 -0.049958836 -0.0768914 -0.08077943 -0.12148609 -0.07015639 -0.10201984
-0.0583668 -0.059429094 -0.12654696 -0.078606315 -0.0728413 -0.06366555 -0.09295293 -0.076351635
-0.09732874 -0.10574059 -0.0701667 -0.049837936 -0.06075634 -0.08973651 -0.108846635 -0.1019134
-0.07899782 -0.08980226 -0.116725996 -0.11499692 -0.08398552 -0.13816948 -0.0806931 -0.04313464
-0.05873577 -0.10546758 -0.11001457 -0.06654781 -0.06371911 -0.12115784 -0.092582785 -0.046373583
-0.088901214 -0.11052091 -0.08339996 -0.14440216 -0.10878573 -0.08352195 -0.05519277 -0.013186822
-0.090242624 -0.054623824 -0.07857856 -0.093889855 -0.09222991 -0.068022355 -0.16088419 -0.055227857
-0.054473568 -0.049274113 -0.07718642 -0.12164149 -0.075899735 -0.09325629 -0.1121249 -0.14086492
-0.09509583 -0.059345134 -0.100090116 -0.09209155 -0.08818529 -0.0844413 -0.07771359 -0.06305885
-0.05900313 -0.1039001 -0.06464966 -0.0919894 -0.1038264 -0.101539694 -0.09916343 -0.11764236

weight f4 [18, 200]
00000000: be41 d83d 1fd8 36be 52a5 01be 5c20 de3c
00000010: 6111 6e3a bccf 3cbd c69b b23c a54a 0db9
00000020: 8d70 3b3c c4b0 a73a bf23 333d ff6e 8ebb
00000030: 84e2 0d3b e78a b4ba 3a06 fe3d 6167 bcbd
00000040: d2a7 513d 92ab b7bd 2861 493e 8df0 793e
00000050: 3ed8 8a3d 0d29 323e ac86 aa3d a7ab 53bd
00000060: 168d 773d cb1a 753e 8d34 923c fbc1 5a3e
00000070: db03 30be 69f3 a63d 6f24 a63c 6520 c9bb
00000080: 6838 1c3e b1bd 5e3e 7737 9abc 0075 be3c
00000090: e23d 9f3e ce44 3d3d 62b0 5a3e 1a8d acbd
000000a0: 9288 4ebd 3f51 4b3e 095f 58bd f43c 303e
000000b0: c36e d53d 58f5 3e3e d339 4c3e 0f21 3cbc
000000c0: 9497 163e f6bf 8c3d 14f8 fc3b 7cad 233d
000000d0: 8b78 78bd d2fc 01be 8f7e aebc 455c 3abe
000000e0: 1abb af3d dea7 89bc 56ce b63d 26fc 123e
000000f0: 5d97 573e 0336 083d a595 a9bd bd52 413e
00000100: 1d27 113e 6028 ce3d c807 4fbe ac88 cc3c
00000110: 4ab5 b53c f28f 12bd 1ae4 103e 0ca9 c3bd
00000120: 0d85 043e 6f93 843c 719a ac3c 4756 843e
00000130: ad20 633d d887 c43c e71f d5bc 58f7 51bd
00000140: 0237 4dbd 4d81 ccbc 33a8 98bd f262 943d
00000150: aa7b 2e3c 6e51 c4bd 683c dabd 924a 1e3e
00000160: 343b d8bd 96eb a1ba 3743 04bd 8892 a03e
00000170: 3c06 f4bb f8ed 453c 15e8 14bd c221 003c
00000180: 6ab7 823d d9ff a6bd f81f 003e 7282 423e
00000190: 02b7 c33d 2afc 61be d53e b4bd 7391 35bd
000001a0: 54f0 0ebd a72a 523c c59f 0fba 567b 223d
000001b0: ffab 6e3e d698 a5bd 6c56 4e3c 1c25 943d
000001c0: 4247 e53d c80a 773e d595 6ebc 005b d33b
000001d0: 5a6f b63d 2180 543e 64ae b63c e7ec b03c
000001e0: 4e08 963d b668 143e f841 f33d 8041 a43d
000001f0: b109 19be 867a fb3a 141f cfbc c0bf 773e
00000200: f18f 9a3d 6460 04be a5a7 3fbe 0398 28bc
00000210: 002e 563e 8313 bd3d 3012 b4bc d141 8ebd
00000220: 858c 043e 392c 35bc 586b 01be 644b b3bc
00000230: b51a c93b f5f2 e9bd f039 f7bd 5285 0fbe
00000240: e507 483d cb9b 1b3e 33a2 63bd 0656 29be
00000250: 4243 a4bc bf6b 453d cbf6 a93d 5cf9 36be
00000260: e7d7 29bc ab00 fcbd fb3c 0dbd c8fb cc3d
00000270: d32e 863d ad8a 78bd 382e fa3c 7941 a23d
00000280: 23c1 6bbe bd98 3f3d 9e90 943e 4247 933d
00000290: 7c46 9f3d 08e6 69be b866 913c ce55 473e
000002a0: ffca 433e 8845 50bd 5803 45be 5f30 c53d
000002b0: 983b 993d a6cd 54bc 8b2b aa3d eb51 d2bc
000002c0: 30b7 913a 695c abbd 12ae c23d e5be cd3d
000002d0: e9ed 6d3d ffc5 f5bd d889 0e3e 1448 9fbd
000002e0: 771d 963d 5720 e13c 8905 2bbe 2988 a5bd
000002f0: 3be0 0e3e 3567 b13d 24e1 8e3d 2411 083e
00000300: 25eb f13d 5818 c9bb ede3 323d 9d1f 0d3e
00000310: e7dc 6b3d 10f4 1b3e 8360 2b3d cd42 c03d
00000320: 5f42 34bd 6f1f f33d d175 45bd 822f c7bd
00000330: e21e 123d 8cbe aa3c a72a 8dbd 2405 b5bd
00000340: e42f 5dbc caa2 22bd 5c49 30be 299f 0ebd
00000350: b4e0 f9bc 2898 eb3c 8c45 0cbe 6a27 1cbe
00000360: 6d42 4bbe 9910 5abc 5c81 c13d b63d 95bd
00000370: 391f 54bd 4995 eebd 64d7 ff3c 394e 4fbd
00000380: cc4a ae3d 2c2a 82bd 1535 703e ff58 553c
00000390: 548f 02be 8141 9abe 50b1 123e 9811 273e
000003a0: 50c4 bc3d e646 97bd 6c31 60bd c1ee ddbd
000003b0: 10ab e63b d963 bc3d 33bb 4a3d 7a9c 3fbd
000003c0: 21a2 d3bb 7393 c33d fb4e 2dbe 71cc d13d
000003d0: 5a6f 7e3d 2a4d 8a3d 4e21 12be 136a 8a3e
000003e0: 8ed9 29be 7949 12bd b176 8ebd d5e9 2a3e
000003f0: 5213 883d 7343 943d b8bc 7dbd dbbd c83c
0.10559414 -0.17855881 -0.12660721 0.02711504 0.0009081569 -0.04609655 0.021802794 -0.00013474615
0.011440408 0.0012793769 0.043735262 -0.004346728 0.0021649906 -0.0013774306 0.124035314 -0.091994055
0.051185437 -0.08968271 0.19665968 0.24408169 0.06779526 0.17398472 0.08326468 -0.051677372
0.060437284 0.23936002 0.017847324 0.2136306 -0.1718897 0.081518956 0.020281045 -0.006137895
0.15255892 0.21752049 -0.018825276 0.02324915 0.311019 0.046208195 0.21356347 -0.084253505
-0.050423212 0.19855212 -0.052825008 0.17210752 0.10421517 0.18648279 0.19943933 -0.011482491
0.1470626 0.06872551 0.007720003 0.03996037 -0.060661834 -0.126941 -0.021300582 -0.1819926
0.08580609 -0.016803678 0.08926074 0.14354 0.21053834 0.033254635 -0.082804956 0.18879218
0.14175077 0.10066295 -0.20217812 0.024967514 0.022181172 -0.03578181 0.14149514 -0.095537275
0.1294138 0.016183583 0.021069737 0.25847074 0.055451084 0.023990557 -0.026016189 -0.051261276
-0.050101288 -0.024964 -0.074539565 0.07245435 0.010649601 -0.09585844 -0.10656053 0.15458134
-0.10558167 -0.0012353535 -0.032290664 0.31361794 -0.0074470323 0.012080662 -0.036354143 0.0078205485
0.0638264 -0.08154268 0.12512195 0.18995073 0.0955639 -0.22068849 -0.08801047 -0.044328164
-0.034897164 0.012827552 -0.00054788246 0.039668404 0.23307799 -0.08085792 0.012593847 0.072336406
0.11195232 0.24125206 -0.01456209 0.006450057 0.089079574 0.20752002 0.022299953 0.021597339
0.07325803 0.14493069 0.11877817 0.08020306 -0.14945103 0.0019186295 -0.025283374 0.2419424
0.07546986 -0.12927395 -0.18716295 -0.010290149 0.20915985 0.09232237 -0.021981329 -0.06946147
0.12944229 -0.011057907 -0.12638605 -0.021886535 0.006137217 -0.114232935 -0.120715976 -0.14015701
0.048835654 0.15196149 -0.055574607 -0.16536722 -0.020051602 0.048198458 0.08299025 -0.1786856
-0.010366417 -0.12304815 -0.034481984 0.10008961 0.065519 -0.060679127 0.030539617 0.07922644
-0.23022895 0.046776522 0.29016584 0.07191326 0.07777116 -0.22841656 0.017749175 0.19466326
0.19120406 -0.05084756 -0.19239557 0.09628367 0.0748207 -0.0129884835 0.083090864 -0.025673827
0.0011117216 -0.08367235 0.095058575 0.10046176 0.058088217 -0.120006554 0.1391977 -0.0777742
0.07329839 0.027481241 -0.1670133 -0.08082611 0.13952725 0.08662263 0.06976536 0.13287789
0.118124284 -0.006136935 0.0436744 0.13781591 0.057583716 0.15229821 0.041840088 0.09387741
-0.04400861 0.1187123 -0.04820806 -0.09725858 0.035673983 0.020842813 -0.06892901 -0.08838871
-0.013500188 -0.03970603 -0.17215484 -0.034819756 -0.030502655 0.028759077 -0.13698405 -0.1524941
-0.19849558 -0.013309621 0.094485015 -0.07287161 -0.05178759 -0.11649568 0.031230636 -0.05061171
0.0851036 -0.063557 0.23457749 0.013021707 -0.12749988 -0.301281 0.14325452 0.16315305
0.09217131 -0.0738657 -0.054734632 -0.10836554 0.007039435 0.09198732 0.049494933 -0.046780087
-0.0064585363 0.09549608 -0.1692466 0.10244072 0.062117912 0.06752999 -0.14270517 0.27034053
-0.16586897 -0.0357146 -0.06956232 0.16690762 0.0664431 0.072394274 -0.061947554 0.024504593

bias f4 [18]
00000000: 5182 d5bd d8da 5d3b dcdf 533b becc e8bc
00000010: 04d0 033b 7679 bf3c 3cc7 583d f476 143c
00000020: 444c 113d 90b7 1bbc b915 2bbc fdfa 243d
00000030: 5da1 81bd ef74 d43b 171e 573b c557 e33c
00000040: 6cab 7f3c 88ec fe3c
-0.104252465 0.0033852365 0.0032329476 -0.028417941 0.0020113 0.023373347 0.05292438 0.009061564
0.035473123 -0.009504214 -0.010442191 0.040278424 -0.06329606 0.006483666 0.0032824331 0.027751813
0.015604835 0.031118646

weight f4 [18, 18]
00000000: bdc7 d5bd 0000 0000 0000 0000 0000 0000
00000010: 0000 0000 0000 0000 0000 0000 0000 0000
00000020: 0000 0000 0000 0000 0000 0000 0000 0000
00000030: 0000 0000 0000 0000 0000 0000 0000 0000
00000040: 0000 0000 0000 0000 0000 0000 aed1 a6bd
00000050: 0000 0000 0000 0000 0000 0000 0000 0000
00000060: 0000 0000 0000 0000 0000 0000 0000 0000
00000070: 0000 0000 0000 0000 0000 0000 0000 0000
00000080: 0000 0000 0000 0000 0000 0000 0000 0000
00000090: 0000 0000 0000 0000 9737 d1bd 0000 0000
000000a0: 0000 0000 0000 0000 0000 0000 0000 0000
000000b0: 0000 0000 0000 0000 0000 0000 0000 0000
000000c0: 0000 0000 0000 0000 0000 0000 0000 0000
000000d0: 0000 0000 0000 0000 0000 0000 0000 0000
000000e0: 0000 0000 de0a 7abd 0000 0000 0000 0000
000000f0: 0000 0000 0000 0000 0000 0000 0000 0000
00000100: 0000 0000 0000 0000 0000 0000 0000 0000
00000110: 0000 0000 0000 0000 0000 0000 0000 0000
00000120: 0000 0000 0000 0000 0000 0000 0000 0000
00000130: f501 85bd 0000 0000 0000 0000 0000 0000
00000140: 0000 0000 0000 0000 0000 0000 0000 0000
00000150: 0000 0000 0000 0000 0000 0000 0000 0000
00000160: 0000 0000 0000 0000 0000 0000 0000 0000
00000170: 0000 0000 0000 0000 0000 0000 88cf 96bd
00000180: 0000 0000 0000 0000 0000 0000 0000 0000
00000190: 0000 0000 0000 0000 0000 0000 0000 0000
000001a0: 0000 0000 0000 0000 0000 0000 0000 0000
000001b0: 0000 0000 0000 0000 0000 0000 0000 0000
000001c0: 0000 0000 0000 0000 14c9 63bd 0000 0000
000001d0: 0000 0000 0000 0000 0000 0000 0000 0000
000001e0: 0000 0000 0000 0000 0000 0000 0000 0000
000001f0: 0000 0000 0000 0000 0000 0000 0000 0000
00000200: 0000 0000 0000 0000 0000 0000 0000 0000
00000210: 0000 0000 5bd7 70bd 0000 0000 0000 0000
00000220: 0000 0000 0000 0000 0000 0000 0000 0000
00000230: 0000 0000 0000 0000 0000 0000 0000 0000
00000240: 0000 0000 0000 0000 0000 0000 0000 0000
00000250: 0000 0000 0000 0000 0000 0000 0000 0000
00000260: aaa5 62bd 0000 0000 0000 0000 0000 0000
00000270: 0000 0000 0000 0000 0000 0000 0000 0000
00000280: 0000 0000 0000 0000 0000 0000 0000 0000
00000290: 0000 0000 0000 0000 0000 0000 0000 0000
000002a0: 0000 0000 0000 0000 0000 0000 a8d7 7fbd
000002b0: 0000 0000 0000 0000 0000 0000 0000 0000
000002c0: 0000 0000 0000 0000 0000 0000 0000 0000
000002d0: 0000 0000 0000 0000 0000 0000 0000 0000
000002e0: 0000 0000 0000 0000 0000 0000 0000 0000
000002f0: 0000 0000 0000 0000 b504 ccbd 0000 0000
00000300: 0000 0000 0000 0000 0000 0000 0000 0000
00000310: 0000 0000 0000 0000 0000 0000 0000 0000
00000320: 0000 0000 0000 0000 0000 0000 0000 0000
00000330: 0000 0000 0000 0000 0000 0000 0000 0000
00000340: 0000 0000 e740 afbd 0000 0000 0000 0000
00000350: 0000 0000 0000 0000 0000 0000 0000 0000
00000360: 0000 0000 0000 0000 0000 0000 0000 0000
00000370: 0000 0000 0000 0000 0000 0000 0000 0000
00000380: 0000 0000 0000 0000 0000 0000 0000 0000
00000390: 8200 0fbe 0000 0000 0000 0000 0000 0000
000003a0: 0000 0000 0000 0000 0000 0000 0000 0000
000003b0: 0000 0000 0000 0000 0000 0000 0000 0000
000003c0: 0000 0000 0000 0000 0000 0000 0000 0000
000003d0: 0000 0000 0000 0000 0000 0000 63e8 a5bd
000003e0: 0000 0000 0000 0000 0000 0000 0000 0000
000003f0: 0000 0000 0000 0000 0000 0000 0000 0000
-0.10438488 0.0 0.0 0.0 0.0 0.0 0.0 0.0
0.0 0.0 0.0 0.0 0.0 0.0 0.0 0.0
0.0 0.0 0.0 -0.08145462 0.0 0.0 0.0 0.0
0.0 0.0 0.0 0.0 0.0 0.0 0.0 0.0
0.0 0.0 0.0 0.0 0.0 0.0 -0.10215681 0.0
0.0 0.0 0.0 0.0 0.0 0.0 0.0 0.0
0.0 0.0 0.0 0.0 0.0 0.0 0.0 0.0
0.0 -0.06104552 0.0 0.0 0.0 0.0 0.0 0.0
0.0 0.0 0.0 0.0 0.0 0.0 0.0 0.0
0.0 0.0 0.0 0.0 -0.06494514 0.0 0.0 0.0
0.0 0.0 0.0 0.0 0.0 0.0 0.0 0.0
0.0 0.0 0.0 0.0 0.0 0.0 0.0 -0.07363802
0.0 0.0 0.0 0.0 0.0 0.0 0.0 0.0
0.0 0.0 0.0 0.0 0.0 0.0 0.0 0.0
0.0 0.0 -0.055611685 0.0 0.0 0.0 0.0 0.0
0.0 0.0 0.0 0.0 0.0 0.0 0.0 0.0
0.0 0.0 0.0 0.0 0.0 -0.05879913 0.0 0.0
0.0 0.0 0.0 0.0 0.0 0.0 0.0 0.0
0.0 0.0 0.0 0.0 0.0 0.0 0.0 0.0
-0.05533377 0.0 0.0 0.0 0.0 0.0 0.0 0.0
0.0 0.0 0.0 0.0 0.0 0.0 0.0 0.0
0.0 0.0 0.0 -0.062461525 0.0 0.0 0.0 0.0
0.0 0.0 0.0 0.0 0.0 0.0 0.0 0.0
0.0 0.0 0.0 0.0 0.0 0.0 -0.09961835 0.0
0.0 0.0 0.0 0.0 0.0 0.0 0.0 0.0
0.0 0.0 0.0 0.0 0.0 0.0 0.0 0.0
0.0 -0.08557301 0.0 0.0 0.0 0.0 0.0 0.0
0.0 0.0 0.0 0.0 0.0 0.0 0.0 0.0
0.0 0.0 0.0 0.0 -0.13965037 0.0 0.0 0.0
0.0 0.0 0.0 0.0 0.0 0.0 0.0 0.0
0.0 0.0 0.0 0.0 0.0 0.0 0.0 -0.08100965
0.0 0.0 0.0 0.0 0.0 0.0 0.0 0.0
